wavenet_final.pth (torch, 403252 bytes, 79 tensors)

start_conv.conv.weight f4 [32, 256, 1]
000000 25 5e 05 00 03 8e 06 80 9e 1f 06 80 4e d0 06 00
       4.9295e-40 -6.01957e-40 -5.62355e-40 6.25739e-40
000010 56 17 9a 3c c2 51 7a bb c4 27 bf bb c0 6c 6f bc
       0.018809956 -0.0038195704 -0.005833598 -0.01461333
000020 e7 0c 32 bc c8 83 ef 3b 90 4f 29 bc 3a 6d e2 bc
       -0.010867334 0.0073094107 -0.010333911 -0.027639974
000030 39 91 66 bd 06 a5 d1 bc b2 2a 3a bd 4a 48 71 bc
       -0.05629084 -0.025591385 -0.045450874 -0.014726708
000040 99 6e 99 bd 97 39 61 bd 77 aa c5 bd 55 e3 fc bd
       -0.07491798 -0.054986563 -0.09651654 -0.12348048
000050 28 3e cf bd de 3c dd bd a8 46 1a be 73 12 f5 bd
       -0.10119277 -0.10802625 -0.15066016 -0.119664095
000060 51 0f 2a be 8e 6e 1f be c1 7c cf bd 7e 62 1d be
       -0.16607405 -0.15569517 -0.10131217 -0.15369603
000070 76 7a 45 be fd 93 24 be f1 1f 79 be c2 a8 35 be
       -0.19284996 -0.16072078 -0.24328591 -0.17740157
000080 02 67 8b be bd b0 74 be bf 2b 8d be 35 a5 91 be
       -0.27227026 -0.23895545 -0.27572438 -0.28446355
000090 96 a5 ac be db 0e a6 be 00 8f e1 be 41 c6 4f bf
       -0.33720082 -0.3243321 -0.44054413 -0.81161886
0000a0 36 83 4f bf e5 f1 4a bf 82 5e 45 bf 39 f5 46 bf
       -0.81059587 -0.7927535 -0.7709733 -0.7771793
0000b0 b7 37 34 bf 5f 0d 29 bf 3d 98 2d bf 20 d9 2a bf
       -0.70397514 -0.6603603 -0.6781042 -0.66737556
0000c0 d6 8c 23 bf 0b 8c 18 bf 01 a5 0e bf 92 77 08 bf
       -0.63886774 -0.5958869 -0.55720526 -0.5330745
0000d0 ca 7e 04 bf 04 21 03 bf 60 fb eb be 11 c3 db be
       -0.51755965 -0.5122225 -0.4609022 -0.4292226
0000e0 1e dd db be 8e 4c ce be f0 6a c9 be 02 6c c5 be
       -0.42942137 -0.40292782 -0.393394 -0.38558966
0000f0 27 6d c0 be 8f 9c c5 be 2e ad ae be 99 0d a1 be
       -0.37583277 -0.38596007 -0.341165 -0.31455687
000100 80 b3 b5 be b5 d5 95 be 92 51 a6 be 5c f8 85 be
       -0.3548851 -0.29264608 -0.32484108 -0.26166046
000110 0a 35 93 be b9 d6 62 be 58 8d 83 be 8b f2 7a be
       -0.28751403 -0.22152223 -0.25693774 -0.24506585
000120 49 2d 80 be 27 75 60 be 42 23 28 be 2b b5 3d be
       -0.2503455 -0.2191969 -0.164197 -0.18526141
000130 fe a8 25 be 46 f4 23 be 25 0f 12 be be 43 cc bd
       -0.16177747 -0.16011152 -0.1426359 -0.09973858
000140 7e f9 8e bd 73 d5 b7 bd 37 d6 6c bd ba ed bd bd
       -0.069811806 -0.08976259 -0.05782148 -0.09273858
000150 88 f5 83 bd a8 a9 d5 bd bd e4 cd bd 73 7c 98 bd
       -0.06443316 -0.1043275 -0.10053394 -0.07445612
000160 44 f7 95 3b 1f 31 2f 3d 74 3f 67 3c 22 be 0e 3d
       0.0045765955 0.042771455 0.0141142495 0.034849294
000170 4a 1a a6 3d e1 ea ff 3c 18 e6 a6 3c 1b f0 19 3d
       0.08110483 0.031239929 0.02037339 0.037582498
000180 86 a5 37 3d b0 26 b4 3c dc 84 2e 3d b2 d0 a7 3d
       0.04483559 0.021991104 0.042607173 0.08194102
000190 33 34 8a 3d 84 15 b1 3d 15 82 d3 3d ca 97 00 3e
       0.067482375 0.08646682 0.103275456 0.12557903
0001a0 0f 8d 0b 3e 15 7a 21 3e cd 93 32 3e 31 fa 04 3e
       0.13628028 0.15769227 0.17439194 0.12986065
0001b0 85 82 20 3e 44 d0 34 3e 9b 23 0d 3e c8 16 1a 3e
       0.15674789 0.17657572 0.13783114 0.15047753
0001c0 e0 68 18 3e 0a 73 18 3e fa 13 2b 3e 54 2f 55 3e
       0.14883757 0.14887634 0.16706839 0.20818835
0001d0 2c 86 39 3e 19 22 42 3e 1a 56 74 3e 81 6c 85 3e
       0.18117589 0.1895832 0.2386097 0.26059344
0001e0 1d 13 8a 3e 18 67 72 3e 32 da 81 3e 06 34 a5 3e
       0.26967707 0.2367214 0.25361782 0.32266253
0001f0 29 04 c9 3e ac d9 c2 3e 4d ce 9e 3e 22 e5 93 3e
       0.39260986 0.38056695 0.3101677 0.28885752
000200 87 1c 8c 3e 0d c9 2d 3e 22 af 2f 3e 4b 64 3f 3e
       0.27365515 0.16971226 0.17156652 0.18690602
000210 e3 c8 23 3e e8 29 62 3e 35 ab 0c 3e 2b 72 dd 3d
       0.15994601 0.22086298 0.13737185 0.108127914
000220 62 92 79 3d 03 7e 7d 3c d9 15 a0 3c cb 80 8b 3d
       0.060930617 0.015471938 0.019541668 0.06811675
000230 c4 e8 d1 3c 71 49 3e 3d 6e 22 6e 3d e8 0a 27 3d
       0.025623687 0.046456758 0.058138303 0.040781885
000240 a9 fb 06 3d 60 c1 1d 3d fb fd 80 bb 07 8d a1 3c
       0.032954846 0.038514495 -0.003936527 0.019720567
000250 33 84 ca bb 12 93 cc bc 65 a8 59 bc 55 d5 89 bc
       -0.00618031 -0.024972472 -0.013284777 -0.016825357
000260 7f 27 0c bd 0a 16 2b bd f7 03 7f bd 7c f1 b7 bd
       -0.034217354 -0.041769065 -0.06225964 -0.08981606
000270 d3 1e 3e bd 78 0f 98 bd a6 9b 03 be 0a 59 eb bd
       -0.046416115 -0.074248254 -0.12852344 -0.11491592
000280 d8 7d 12 be 02 f9 2c be 8f 86 1f be 85 b4 3e be
       -0.14305818 -0.16891864 -0.15578674 -0.1862355
000290 68 9c 2a be 42 12 3b be 22 0f 51 be fb 77 76 be
       -0.16661227 -0.18268684 -0.20415929 -0.24069206
0002a0 ee 98 66 be 69 f3 84 be 1e 12 87 be 74 3a 84 be
       -0.22519276 -0.25966957 -0.2638101 -0.25825846
0002b0 d2 2f 85 be db 8c 87 be 0d 0c 85 be 1c 07 a8 be
       -0.26013047 -0.26474652 -0.25985757 -0.32817924
0002c0 f3 dd a9 be 45 88 ae be 90 4d a6 be b6 21 b4 be
       -0.33177146 -0.3408834 -0.3248105 -0.3518197
0002d0 6c 79 bc be f6 7f b1 be 06 b2 c8 be b9 e3 c3 be
       -0.36811388 -0.3466794 -0.3919832 -0.38259676
0002e0 d3 b1 d7 be a6 19 e6 be 9b 86 ec be fe a5 f2 be
       -0.42127857 -0.44941443 -0.46196446 -0.47392267
0002f0 e3 8a eb be fb a8 f4 be f2 e9 fd be 4e e6 fa be
       -0.460044 -0.47785172 -0.4959255 -0.49003834
000300 a3 02 02 bf 7d 30 09 bf 8e 0a 10 bf ee 93 0c bf
       -0.50785273 -0.5358961 -0.56266105 -0.5491322
000310 d7 18 1b bf cd 1f 22 bf d7 d5 2f bf ce 01 2d bf
       -0.6058478 -0.63329774 -0.6868567 -0.6758088
000320 ca 57 35 bf 42 54 34 bf 15 61 3b bf 58 bf 3f bf
       -0.7083708 -0.7044107 -0.7319501 -0.7490134
000330 06 01 4a bf d6 fa 49 bf 8b 2f 54 bf d7 55 59 bf
       -0.7890781 -0.7889837 -0.82885045 -0.84896606
000340 4c d3 67 bf 68 10 6b bf f6 4a 67 bf ff a5 78 bf
       -0.9055679 -0.9182191 -0.90348756 -0.9712829
000350 b6 23 7b bf 59 12 75 bf 3f 72 78 bf fb 7a 7a bf
       -0.98101366 -0.9573112 -0.97049326 -0.97843903
000360 e1 a0 c3 be 31 82 dc be 84 34 c9 be e2 20 c2 be
       -0.38208678 -0.43068078 -0.3929788 -0.37915713
000370 8f a7 bd be 61 9b bb be 35 df 93 be 62 95 b3 be
       -0.370419 -0.36641982 -0.2888123 -0.35074908
000380 ab ea ab be 58 e3 9e be 85 52 85 be 66 f9 81 be
       -0.33577475 -0.31032825 -0.2603952 -0.25385588
000390 f6 41 7a be 23 a3 69 be a3 a3 30 be 84 14 5d be
       -0.24439225 -0.22816138 -0.17249922 -0.21589857
0003a0 7a c8 4c be 78 58 5b be 99 71 17 be 8b 3a 10 be
       -0.1999835 -0.21420467 -0.14789428 -0.14084832
0003b0 50 2b 02 be 02 ae f8 bd 36 d4 b9 bd d9 3e ef bd
       -0.12711835 -0.12142564 -0.09073679 -0.11681909
0003c0 23 e2 98 bd 9c 0a 97 bd 40 74 42 bd 36 20 99 bc
       -0.07465007 -0.073750705 -0.047474146 -0.018692117
0003d0 9b ae 64 bc 9d a9 0a 3b 0f cc f6 bb 92 01 13 bd
       -0.013957645 0.0021158226 -0.00753165 -0.03589017
0003e0 ff eb 6d bc 44 2c 83 07 88 c9 05 00 65 75 d2 bb
       -0.014521598 1.9736706e-34 5.31473e-40 -0.006422686
0003f0 f1 b2 bd a2 84 8f 05 00 df 5e 05 00 8a 04 06 00
       -5.1418014e-18 5.10661e-40 4.93211e-40 5.52641e-40

start_conv.conv.bias f4 [32]
000000 02 5e 1b bd df e0 16 bd 6c 60 11 3d 52 b3 d2 3c
       -0.03793145 -0.036835548 0.035492346 0.025720272
000010 1e 94 b2 bb 1b 9f 16 3d 22 d7 71 3b 57 4b 82 bc
       -0.005449786 0.03677283 0.003690191 -0.015905065
000020 85 7b a0 3b 36 dd 0f 3c 41 f5 46 3c 82 cf 1f bc
       0.004897537 0.008780768 0.012143434 -0.009754064
000030 43 e7 e6 3b 97 a7 94 39 0b 5f ea bb ce 04 8f 3a
       0.0070466115 0.00028353624 -0.0071524433 0.0010911466
000040 c1 f3 3d 3d 38 16 7f bb a1 71 b9 bc be 8d 6e 3c
       0.04637504 -0.0038923156 -0.02263719 0.014560161
000050 2e 21 6d b7 8b 95 99 bc a3 8f b6 bc 48 1b f8 3c
       -1.4134026e-05 -0.018748065 -0.022285288 0.030286446
000060 e0 4f b3 bc 45 03 a5 bb 4b 39 09 3d 82 6a 73 3d
       -0.021888673 -0.00503579 0.033501904 0.059427746
000070 3a 0c a8 bc 1c 3d 85 bc 7c 0f c8 bc 42 c5 69 3d
       -0.020513643 -0.01626449 -0.024421446 0.057072885

genre_embedding.weight f4 [10, 32]
000000 2e c3 e1 bf 22 ca 10 3f d1 c8 6b 3f 72 90 e5 bd
       -1.7637689 0.5655843 0.92103297 -0.112091914
000010 28 43 4f 3f ff c2 8f be c0 c1 ed bf e8 58 1b 3e
       0.8096185 -0.28078458 -1.8574753 0.15170634
000020 a0 85 8c 3e 26 66 16 3e e2 56 9b be d4 f0 20 bd
       0.27445698 0.14687404 -0.30339724 -0.03929217
000030 3a 9d 2e 40 77 b0 8a 3f c9 a1 8d bf e4 0d ab be
       2.7283463 1.0835103 -1.1064998 -0.33409035
000040 ab 76 0d 3d 3d 51 9d 3e c5 b1 8d bf d8 52 bb 3d
       0.034537 0.30726042 -1.1069876 0.091466606
000050 60 23 48 bf 5b 8e 61 be 40 e3 e0 3f 66 71 2d 3f
       -0.7817898 -0.2202696 1.7569351 0.6775116
000060 dc 0a 96 bf 87 54 c5 3e 14 6a 08 bf a4 68 b3 3f
       -1.1722064 0.38541052 -0.5328686 1.4016309
000070 27 85 3e bf 5a 22 f9 be 36 19 6f 3e 95 1f bb 3d
       -0.74421924 -0.4865902 0.23349461 0.09136883
000080 47 d2 ea bc 78 cb 62 bf 67 7c db bf 4c 69 b1 be
       -0.028664721 -0.8859172 -1.714734 -0.34650648
000090 a3 e2 50 bf 8e 2c 08 bf 45 3a 05 c0 b1 c7 a2 3d
       -0.8159582 -0.53192985 -2.0816815 0.07948244
0000a0 59 af eb 3e 4f 08 35 3f eb 06 5b 3f 76 f3 0a bf
       0.46032217 0.707158 0.8555743 -0.5427774
0000b0 89 4e 76 3e 80 8f e7 3f 8e 8c 09 40 e3 4e 59 3e
       0.24053396 1.8090668 2.1492038 0.21221499
0000c0 6e bf 96 3c 4f e4 0b 3f f5 52 ae 3e 97 c7 f6 be
       0.018401828 0.54645246 0.34047666 -0.4819915
0000d0 0d 6f 94 3e 5d e4 13 3f be dd 34 3e e5 87 3e bf
       0.28990975 0.5777033 0.17662713 -0.7442611
0000e0 90 ff c4 3f 8e 03 8a bd af 9b 00 40 89 09 04 40
       1.5390491 -0.06738959 2.0095022 2.063082
0000f0 b0 42 ec 3f ec 0c 20 3e a0 57 70 bf ba f6 37 3f
       1.8457851 0.1562993 -0.93883705 0.7186085
000100 16 d5 16 3f 46 a7 01 3f be 84 4e 3f 97 55 8e 3f
       0.58918893 0.50645864 0.806713 1.111987
000110 ef 63 e4 bf e3 a3 0d c0 2b 43 35 bd 76 c9 8b 3f
       -1.7842997 -2.2131279 -0.04425351 1.0920856
000120 e3 07 c5 3d 7f 24 62 3c 6f 90 0e 3f 4a 7d 07 bf
       0.09620645 0.013802647 0.5568914 -0.5292555
000130 a4 7a 6c 3f 8d 5e b5 bd b3 c8 af 3e 4f 95 3c 3e
       0.92374635 -0.08855925 0.3433281 0.18416332
000140 4a b8 41 3e 74 3e 0a c0 45 cf 0e 3f 80 66 aa be
       0.18917957 -2.1600618 0.5578502 -0.33281326
000150 70 d5 01 bf 9d 5c 00 c0 e9 a3 4d bf 03 dc 12 3f
       -0.50716305 -2.0056527 -0.8032823 0.5736696
000160 a7 28 69 3f 3d ec 88 3e de b6 03 bf c8 ee 7b 3f
       0.91077656 0.26742736 -0.5145091 0.98411226
000170 97 69 0f 40 31 19 85 3e fe e9 be bd bf f7 98 3d
       2.2408197 0.25995782 -0.09321974 0.07469129
000180 51 a2 e0 3d f2 ef f3 bd bf d9 08 3f 08 7e 29 3f
       0.109684594 -0.11911 0.53457254 0.66207933
000190 ad 38 d9 3f 5b 72 52 3f bd a3 4f 3f 2b c6 ae 3e
       1.6970421 0.8220574 0.8110922 0.34135565
0001a0 c0 c7 bc bf 3f 81 fb be a2 c2 86 bc 0e 3f d6 bf
       -1.4748459 -0.49122044 -0.01645023 -1.6737993
0001b0 e0 38 81 be 25 52 9f bf a6 83 ed be 51 9a 79 3e
       -0.25238705 -1.2446944 -0.46389502 0.24375273
0001c0 d1 59 af bf 1b 31 68 3f fe 2d 26 c0 e8 c0 d6 3f
       -1.3699285 0.9069993 -2.5965571 1.677762
0001d0 51 72 8a bf c5 e8 84 be 4e 5a d4 bf 94 21 9a 3f
       -1.0816137 -0.2595884 -1.6590059 1.2041497
0001e0 6e d6 3b bf 5b 72 bd bc 25 0f f8 3d ec 29 2d 3f
       -0.7337407 -0.023125818 0.121122636 0.6764209
0001f0 29 77 5c 3f 29 70 77 bf 9d fa 58 3f 2d 3d b6 bf
       0.86119324 -0.9665552 0.84757406 -1.4237419
000200 a3 8b f7 be 32 fc dc bb 3a 99 aa bd c5 96 bc bf
       -0.48348722 -0.006743931 -0.08330007 -1.4733511
000210 91 32 63 3e 8f d9 65 3f 30 17 4c 3d 7b e6 ad be
       0.22187258 0.89785093 0.0498268 -0.33964905
000220 ba db 50 3e b8 1d b1 be 15 68 2a 3f be 93 83 bf
       0.20396319 -0.34592986 0.66565067 -1.0279462
000230 a7 d3 f5 be c5 e5 a0 3e 89 75 06 c0 97 4a 7d be
       -0.4801304 0.314253 -2.1009238 -0.24735485
000240 b6 14 59 bf c7 f7 01 bd 65 e8 9e bf e1 0a 8c bf
       -0.8479723 -0.03173044 -1.2414671 -1.094082
000250 45 89 3d 3f ad 07 f1 be 89 c5 85 3f 6b e0 2a bf
       0.7403758 -0.4707617 1.0450908 -0.66748685
000260 74 ca dc 3d 41 ee 3f 3f d3 a0 18 3d f9 a1 20 be
       0.10780802 0.7497292 0.03726275 -0.15686788
000270 fc c2 a5 bf 1f cd 76 3c 96 43 61 bf a0 bf 9e 3f
       -1.295013 0.015063553 -0.8799375 1.2402229
000280 01 ef 72 3f bb 0f c3 be 27 c6 45 3e 43 f1 a2 bf
       0.9489594 -0.3809794 0.1931387 -1.2729877
000290 06 e4 ac be 2c 04 0a c0 55 42 8d 3e 18 22 b7 be
       -0.33767718 -2.1565046 0.2758967 -0.357682
0002a0 4c f5 7d 3c fa e3 8a 3e a4 7f 4a bf 04 c3 37 bf
       0.015500378 0.27127057 -0.79101014 -0.71781945
0002b0 cd bd 98 3f 7f 4d 2c 3f 43 3e 03 3f 05 38 da be
       1.1932923 0.6730575 0.5126688 -0.42620865
0002c0 37 8d b7 3f ff 02 94 be 60 e1 c7 3e 3c ba 5a 3a
       1.433997 -0.28908536 0.39039135 0.0008343791
0002d0 88 9a 67 3e f3 48 e7 be 6a b1 3b 3e 01 c8 26 bf
       0.22617543 -0.45172843 0.18329397 -0.6514893
0002e0 57 56 a9 3d 6e 37 a1 be e8 dd e7 3e a0 ac 81 bd
       0.08268421 -0.31487602 0.4528649 -0.06331754
0002f0 f1 7e e3 3e b7 09 87 3f fa 84 12 3f ab 6e 15 3f
       0.44432786 1.054984 0.57234156 0.5837199
000300 5f c6 cb be 00 e9 22 3f 52 e5 ab be dc 57 95 3e
       -0.39799783 0.6363678 -0.33573395 0.29168594
000310 e7 6d 70 3f 24 69 8a bf 1f 4a 9c 3d d2 fd 6e bc
       0.939177 -1.0813336 0.07631325 -0.014586883
000320 50 35 2d 3f e4 fc 24 bf 9b 06 08 bf 57 52 19 3f
       0.67659473 -0.6444838 -0.5313508 0.59891266
000330 7b 34 88 3f 8a 03 c2 3f 89 13 94 3f 3b 08 fc bf
       1.0641016 1.515733 1.1568462 -1.9690012
000340 df d6 9e be 3a 39 b1 be 35 66 a0 bd d7 cb af 3e
       -0.3102331 -0.34613973 -0.078319944 0.34335205
000350 aa d8 a3 3f d4 e6 34 3e f1 56 b6 3d 96 45 ad 3f
       1.2800496 0.17666179 0.089033015 1.3536861
000360 b1 eb ea 3e d7 88 ca be b5 1d 0d 3f 34 d9 b7 3f
       0.45882943 -0.39557526 0.55123454 1.436316
000370 3b 4f ff 3e af ad d4 3f 0a a2 d4 bf 13 10 04 c0
       0.49865136 1.6615504 -1.661195 -2.063481
000380 a4 08 3e 3f f5 17 8f bd fa dc 63 bd cc 71 fb be
       0.74231935 -0.06986991 -0.05563066 -0.49110258
000390 24 44 0c 3f 31 58 6f bf 45 96 28 3f b4 c4 c5 3f
       0.54791474 -0.93493944 0.65854293 1.5450654
0003a0 d7 c0 15 3f d5 77 d5 3f 0a 31 e1 be 12 c7 2e 3f
       0.58497375 1.6677195 -0.43982726 0.6827251
0003b0 7d b8 28 3f 22 ff 34 3f aa 99 81 3e 86 aa f7 bf
       0.65906507 0.707018 0.2531255 -1.9348915
0003c0 f3 90 bc bf f5 38 c4 be 0e 94 1a be 14 93 68 be
       -1.4731735 -0.38324705 -0.15095541 -0.22712356
0003d0 98 cd ee be 4c 4e 85 3e 08 88 0e be 8c 52 ab 3f
       -0.4664123 0.26036298 -0.1391908 1.3384566
0003e0 0b 54 fc 3e b0 fc e5 be b6 83 d5 3e fa 75 a5 bf
       0.4928287 -0.44919348 0.4170205 -1.2926629
0003f0 cf ce d4 3e 4a 2c 8a bf d0 a6 e9 3e 35 1b 76 bf
       0.41564032 -1.0794766 0.4563508 -0.96135265

residual_blocks.0.dilated_conv.conv.weight f4 [64, 32, 2]
000000 a9 d2 85 bd 9e ce 0f be 31 2f 0a 3e 72 66 44 bf
       -0.06534321 -0.14043662 0.13494565 -0.7671882
000010 0d 41 92 3c 85 81 fd 3e 1e 74 2c 3e d3 88 c6 3c
       0.017853284 0.49512878 0.1684117 0.024235165
000020 86 6e 3e 3d b5 a9 5e be 2e ea 40 3e f4 69 74 3e
       0.046492122 -0.21744426 0.18839332 0.23868543
000030 d6 9d 0b 3d 16 6a 4d be 7f 6d a7 3d ae 44 85 be
       0.03408607 -0.2006 0.081751816 -0.2602896
000040 24 1c e5 bd 89 ca a4 3e a2 d9 11 3e 7e 79 24 3e
       -0.11187008 0.32185772 0.14243177 0.1606197
000050 86 bf c8 3d 76 7e 45 bd ca f5 00 be 3e 64 49 3c
       0.09802155 -0.048216306 -0.12593761 0.012291966
000060 e9 bb 23 3e c0 7b 6c be c4 12 21 3e 8d 83 8a be
       0.15989651 -0.23094082 0.15729815 -0.2705349
000070 b1 6a 94 bd a6 30 93 be 13 d8 84 be 69 9a 47 3c
       -0.07246912 -0.28748053 -0.25946102 0.01218281
000080 ff 3d 08 bd 72 ac 16 3e a0 4e 50 be f8 20 52 be
       -0.03326225 0.1471422 -0.20342493 -0.20520389
000090 7f 7d 1e 3d e0 e8 9d be 91 76 41 3e 81 d5 73 be
       0.0386939 -0.30841732 0.18892886 -0.23811914
0000a0 00 4f e1 bd 9e 32 9e 3e 7e 4f 3c bc 33 1f f9 3d
       -0.11001396 0.30897993 -0.011493562 0.12164154
0000b0 cd 1e 60 bd 6c df db bd ca a3 11 bd 1f c6 6c 3d
       -0.054716874 -0.10735974 -0.035556592 0.05780613
0000c0 e4 94 40 be 6d 3a 99 bd e1 57 01 be 2a 13 7e 3e
       -0.18806797 -0.07481847 -0.1263118 0.24811998
0000d0 90 51 39 3e a5 db 06 3e 38 64 19 be 4b 21 f5 3e
       0.1809752 0.13169725 -0.14979637 0.47876963
0000e0 d7 3b f0 3d de 7f 85 be fc f3 07 be 99 e1 29 bd
       0.117301635 -0.26074117 -0.13276666 -0.041474912
0000f0 d4 00 38 be 0a e5 34 3e a0 4c 8e bd 00 cf 51 3e
       -0.17969066 0.17665496 -0.06948209 0.2048912
000100 35 e7 86 bd fa 38 d0 3e 71 8c cb 3d 9b 95 7c be
       -0.06587068 0.4066847 0.099388964 -0.24666445
000110 13 0b 8e 3c 04 17 4b be da 99 b3 3d a7 7b 91 be
       0.017339265 -0.19832999 0.08769579 -0.28414652
000120 9b 2a 4a bb d4 c6 8e 3d 77 79 68 3d 8e 9a e9 be
       -0.0030848149 0.06971517 0.056756463 -0.45625728
000130 67 20 db 3d 01 d8 7d 3d cf af d9 3d 2e 50 df bd
       0.1069954 0.061973576 0.10629236 -0.10903965
000140 62 92 65 be b9 2b 87 3e 83 82 9f 3d 23 df be bd
       -0.22419122 0.26400545 0.07788565 -0.09319904
000150 35 9d 32 3e 36 6c 91 bd 30 78 c1 bd af 56 00 3e
       0.17442782 -0.07100718 -0.09446752 0.12533067
000160 64 10 12 3e 2e 0a 90 be 02 b5 bd 3d 1d 0e 36 bd
       0.14264065 -0.28132766 0.0926304 -0.044447053
000170 11 db 7c bc 6b 60 9e 3d aa 43 5a 3b fe 8c 25 3e
       -0.015433089 0.07733234 0.003330449 0.16167066
000180 0d cc 11 3e d7 1a 30 be 15 64 68 3d cc 07 71 3d
       0.14237995 -0.17197739 0.05673607 0.058845326
000190 d5 fc 03 be 82 f2 2b 3d 72 df 15 3e 4e 55 c7 be
       -0.12889417 0.04197932 0.14636019 -0.3893227
0001a0 24 7f 9c be fa 6c ba 3e d1 59 93 3d ec 16 c8 3d
       -0.3056575 0.36411268 0.071948655 0.09769997
0001b0 79 67 13 bd d9 55 19 3e ef 83 36 3d c1 33 e9 bd
       -0.03598735 0.14974155 0.044559415 -0.113868244
0001c0 74 e1 ef bd d8 e4 fe 3d 2f 57 7d be 73 c5 7e 3e
       -0.11712924 0.12445992 -0.24740289 0.24880008
0001d0 00 86 ce 3d cc d5 f5 be 34 23 0a bc 4c f7 61 be
       0.10084152 -0.48014677 -0.008431245 -0.22066993
0001e0 3b 8e 63 bd 06 36 7a 3d e3 56 e7 bd 3e fe 31 3e
       -0.055555563 0.061086677 -0.11295869 0.17382142
0001f0 89 fd 43 3c 9d 8b 26 3e 4c 15 2a 3e 7c 74 d5 bd
       0.011962303 0.16264196 0.16609687 -0.10422608
000200 3c 0f 30 be 05 eb 03 3f 1d 1a da bd a3 17 f4 bd
       -0.17193311 0.51530486 -0.10649512 -0.11918571
000210 5d 0a 42 3e 40 3d 98 3c f0 43 0b 3e 4e 55 43 be
       0.18949266 0.018583894 0.13600135 -0.1907551
000220 24 5f 6a 3c f6 1f 25 3e be 13 0d 3e 3f 13 98 be
       0.01430491 0.16125473 0.13777062 -0.29702184
000230 5b 20 25 3e ff 4d 4b bc ad e9 50 3e f4 b5 fc bd
       0.16125624 -0.012408732 0.2040164 -0.12339392
000240 92 8a 8b be cb be 92 3e eb 29 3e 3e 3a e3 c1 3d
       -0.27254158 0.28661188 0.18570678 0.09467168
000250 da 00 5a 3e 7f ff 0a bd b8 93 73 3d f3 12 6b 3d
       0.21289387 -0.033935066 0.059467047 0.05739112
000260 1a 45 34 3e dd 03 ec 3c ed 69 35 3e 28 a7 8d be
       0.17604485 0.028810436 0.17716189 -0.27666593
000270 58 5e 34 bd 9a 51 20 3e 14 a8 55 be 51 14 b9 3d
       -0.044035286 0.15656129 -0.20864898 0.09037078
000280 85 dd b1 bd 4d 68 90 bd c9 e0 aa be c8 0a e0 bd
       -0.086848296 -0.07051144 -0.33374622 -0.10939556
000290 57 86 90 3e 7c ea 44 3e 12 85 50 3e 13 12 79 be
       0.28227493 0.19230074 0.20363262 -0.24323301
0002a0 c9 b0 a5 bd 4b 94 b9 3e 4c 6d 27 be 01 20 79 be
       -0.0809036 0.3624595 -0.16350287 -0.24328615
0002b0 f5 24 54 be d1 10 08 be a7 5f 9c 3d 96 4c cf 3c
       -0.20717223 -0.13287665 0.07635432 0.025305074
0002c0 7e 44 8e bc 38 59 97 3d fa 47 38 be 4a 81 8a 3e
       -0.017366644 0.07390064 -0.17996207 0.27051765
0002d0 9b ef a9 3e 21 cb 18 be 3f 9f 2e be 08 ef b4 be
       0.33190617 -0.14921238 -0.17052935 -0.35338616
0002e0 5d f2 48 3e cb cb 44 be d7 97 8f bd b8 d6 0c 3e
       0.19623704 -0.19218366 -0.07011383 0.13753784
0002f0 9b e2 c9 be 43 11 0c bd e6 64 9d bb 66 ed 27 be
       -0.394307 -0.03419615 -0.004803288 -0.16399154
000300 7b 29 87 3d 47 dc a6 be 24 f4 2f be c4 79 12 bd
       0.06599709 -0.32589933 -0.17182976 -0.035760656
000310 6a 6b 66 bd 84 23 32 3e ec c6 0a 3c 70 9e 9d 3e
       -0.05625478 0.1739636 0.008470278 0.3078494
000320 17 9e 82 bd 88 b5 1d be 6a aa 73 bc 34 9d ca 3e
       -0.063778095 -0.1540128 -0.014872173 0.3957306
000330 14 83 41 bd 82 9b a0 bc 07 ad 36 bd 02 75 86 3d
       -0.047244146 -0.019605402 -0.044598605 0.06565286
000340 d3 0d 17 3e dc 66 cd bd 2e 35 df bd 12 2d 0b bc
       0.14751367 -0.100293845 -0.10898815 -0.008494632
000350 83 83 2a bd da 4a 32 3c 31 de 59 3c 36 2c 30 be
       -0.041629326 0.010882104 0.013297603 -0.17204365
000360 4d 5e a9 bd 9e 03 16 bc b3 c8 a4 bd 3e 38 03 3e
       -0.082699396 -0.009156136 -0.08046093 0.12814423
000370 70 f6 98 3d cb c7 74 bd 4d 99 4f bd 12 51 bd bd
       0.07468879 -0.05976085 -0.05068331 -0.092439786
000380 17 cb 39 be 13 c0 df 3c 58 d5 32 bd 7d 7e 41 be
       -0.18143879 0.027313268 -0.04366049 -0.18895908
000390 e7 57 23 be 26 58 9a bc d2 d8 2e be b4 eb 84 3e
       -0.15951501 -0.01884086 -0.17074898 0.25961077
0003a0 49 d0 1a 3e 36 e7 2c be 6f ca d5 bb d8 1a 32 bd
       0.15118517 -0.16885075 -0.006524376 -0.04348263
0003b0 43 e9 08 bd 8f ea 87 be 32 8b 5e bc 33 b3 28 3e
       -0.03342558 -0.26546142 -0.013582991 0.16474609
0003c0 5a ba 58 3d 0c b9 33 3c 05 e0 b1 3d 22 16 2c be
       0.052912094 0.010969412 0.086853065 -0.16805318
0003d0 f2 3e 7d bc d3 37 b3 3e f3 72 2a bc c5 e6 f8 3e
       -0.015456902 0.35003528 -0.010403383 0.48613563
0003e0 c9 30 df 3c c2 24 43 3d bd 4a 27 bb eb c1 96 bd
       0.027244942 0.047642477 -0.0025526725 -0.07361206
0003f0 d7 59 0a 3e 4d e0 17 be 3d e3 06 3d 2c ca dd 3d
       0.13510834 -0.14831658 0.032931555 0.10829577

residual_blocks.0.dilated_conv.conv.bias f4 [64]
000000 91 e9 a6 bd e0 65 c8 bc 1a 31 47 bd 64 90 2d 3d
       -0.08150018 -0.02446264 -0.04863081 0.04237403
000010 32 bc 91 3c 25 bc 3e 3d 73 21 43 bd 7c 88 a0 bd
       0.017789934 0.046566147 -0.04763932 -0.07838532
000020 92 92 a3 3c e3 7c 98 bd 4c 5b e7 bc 12 f9 8a 3d
       0.019967351 -0.07445695 -0.028241776 0.06785788
000030 d2 46 9a bd 22 ba c6 3b 64 30 be 3d 56 2c c2 3b
       -0.07533039 0.006064669 0.092865735 0.0059256954
000040 a3 66 c9 3d 23 d1 ac bd 27 40 7d 3d 2c cf a2 bc
       0.098340295 -0.08438327 0.06182876 -0.019874178
000050 1e ac 16 3c aa e2 90 3a b7 5d ef 3d 96 af 63 3d
       0.009196309 0.0011053879 0.116877966 0.055587374
000060 4d 90 aa bc 7e cf 88 bd 1d be c2 bd 65 b9 c5 3c
       -0.020820761 -0.06680201 -0.095089175 0.024136255
000070 e0 ad ea 3d 2c ce 2b bd a5 6c 2a bd 8f 85 81 bd
       0.11458945 -0.041944668 -0.041607518 -0.063243024
000080 6e f8 83 3e 41 ba 9f 3d 2a 4c 23 3e b8 12 16 bd
       0.25775474 0.07799197 0.15947023 -0.036638945
000090 78 93 47 be 16 08 88 bd c1 fe 51 bd c8 e8 af bc
       -0.19489849 -0.06642167 -0.051268343 -0.021473303
0000a0 99 f4 b0 3d 9f 9f 9c 3d 45 1e 16 3e 1a b2 b2 3e
       0.08640403 0.07647633 0.14659984 0.34901506
0000b0 d1 da 02 be 58 5d 34 be 75 b7 20 3e 6e 77 db 3e
       -0.12778784 -0.17613733 0.15694983 0.42864555
0000c0 9a 22 54 3e e2 dd 20 3e eb 8a 44 be 7a 5a 13 be
       0.20716324 0.15709642 -0.19193618 -0.14389983
0000d0 c1 bd 14 3f 7f 16 0b be e6 71 ce bc fe c4 dd 3c
       0.5810204 -0.135828 -0.025200795 0.027071472
0000e0 91 db fd bd 34 9b 48 be d4 6f a3 3d 50 c8 eb 3d
       -0.123953946 -0.19590455 0.07980314 0.11512816
0000f0 e6 e8 21 3c 14 66 97 bd 72 49 17 be 17 22 c6 3d
       0.0098821875 -0.07392517 -0.14774111 0.09674471

residual_blocks.0.output_conv.weight f4 [32, 32, 1]
000000 39 0d fa 3c db 0e 3a 3d 42 d8 ad ba 5c 94 17 3d
       0.030523883 0.045424324 -0.0013263302 0.03700672
000010 3c b4 3b 3e 8c b3 10 3d 83 10 32 be b6 6d 48 3e
       0.18330473 0.03532748 -0.17389111 0.19573101
000020 e0 8b b1 be 37 a3 75 bd 6a 8d a2 bd 61 45 d1 3d
       -0.3467703 -0.059970107 -0.07937129 0.10218311
000030 b0 3e dc bb ae 7f 78 be fa fe 03 bc a2 b7 54 3e
       -0.00672134 -0.24267456 -0.008056397 0.20773175
000040 b2 4c da bd 93 d7 1a be 44 9e 01 3e 75 a8 ba 3d
       -0.1065916 -0.15121298 0.1265803 0.09114162
000050 88 b4 77 3d c3 e3 f3 3c 3b 1b 08 3e ed ec b6 3c
       0.060474902 0.029771691 0.13291638 0.022329772
000060 d9 47 41 bd e5 23 e8 bd 7f df d3 3c 2f 96 b6 3e
       -0.04718766 -0.11334971 0.025863407 0.35661456
000070 3a 96 25 3e 35 9c de bc 9a 34 1f be b8 93 b1 3c
       0.16170588 -0.027174095 -0.1554741 0.021676883
000080 0d d6 88 be b9 d4 2e be 1c 75 05 be 51 b9 02 be
       -0.26725808 -0.17073335 -0.13032955 -0.12766005
000090 4e 8a 38 be 30 c3 83 3d b5 24 75 bd a5 56 1f be
       -0.18021509 0.064337134 -0.05984946 -0.15560396
0000a0 eb 07 b9 3c e6 5a 1b be 04 e8 55 bd f9 9a 31 3e
       0.022586783 -0.15171394 -0.05222322 0.17344274
0000b0 1c 50 ac bd f1 a0 c6 3d f0 6d 74 3e 28 f8 8a bd
       -0.08413717 0.09698666 0.23870063 -0.06785613
0000c0 40 7e 9c 3e 95 f9 b4 be 60 d0 10 3e 45 17 65 3e
       0.3056507 -0.35346666 0.14141989 0.22372158
0000d0 39 1a 8d bd b4 89 31 be d5 9f fd 3d 3c ee 26 3e
       -0.06889767 -0.17337686 0.12384001 0.16301817
0000e0 15 51 45 be 49 1f d5 bd 8b 10 b8 bd 28 40 93 be
       -0.19269212 -0.10406358 -0.0898753 -0.28759885
0000f0 2d a8 3b 3e 07 14 26 be 13 fd 9e be a6 15 0c 3e
       0.18325873 -0.16218577 -0.31052455 0.13680133
000100 6d 5a 6f 3d 1e de 50 3e e8 31 47 3d ea 13 95 bd
       0.058435846 0.20397231 0.04863158 -0.07279189
000110 21 c2 93 3c 72 d7 24 3e f0 49 a9 bd 60 41 39 3e
       0.018036904 0.16097811 -0.082660556 0.18091345
000120 b0 cf 0e bd fc 25 6a 3c d5 b1 c7 3e da e3 b5 be
       -0.034866035 0.014291283 0.39002863 -0.355254
000130 64 04 db 3d 7b 38 0f be 7a 31 c0 3d 8d 21 91 3e
       0.10694197 -0.1398639 0.09384437 0.2834591
000140 a1 bd ba 3e ff 3e 58 3e 54 2f 81 be e6 94 1d 3e
       0.364728 0.21117781 -0.2523142 0.15388831
000150 d8 fc 7d be f6 b6 69 3e e3 d6 85 bd ee 18 1d be
       -0.24803483 0.228237 -0.06535127 -0.15341541
000160 4d c7 c9 bd 0e ff af 3c a8 6e fd bd 6c a4 9f 3e
       -0.09852467 0.021483924 -0.12374622 0.3118013
000170 2c c8 cf be 8f be 2f be c2 19 bb 3e ff d2 55 be
       -0.40582407 -0.17162536 0.3654309 -0.2088127
000180 d3 05 6b 3c 9a 3c d1 be 0d 15 ac be 20 b3 b1 3e
       0.01434465 -0.40866548 -0.3360981 0.34706974
000190 91 66 72 3e c6 36 b8 3e c6 4c a8 3e e1 4c c9 3d
       0.23671938 0.3597929 0.32871073 0.098291166
0001a0 87 4f a5 3e bb 48 8d be 38 a6 43 bd b4 06 1e 3e
       0.32287237 -0.2759455 -0.04776594 0.15432245
0001b0 cc d2 cb be ea 27 90 bd d0 9d ad 3e a1 bc 74 bd
       -0.39809263 -0.07038863 0.33909464 -0.059750203
0001c0 2a 03 2d 3e 77 5b b9 be fd f3 82 bc 98 88 63 be
       0.16895738 -0.36202595 -0.015985483 -0.22220075
0001d0 02 5f c6 3e ed 5a ca 3d a7 67 bd 3c 76 71 94 be
       0.3874436 0.09880624 0.023120714 -0.28992814
0001e0 0b 58 14 3e 08 89 12 3e b2 c9 ad be eb 1e 3f be
       0.1448671 0.14310086 -0.33942944 -0.18664138
0001f0 b3 a8 3b be 59 f7 12 be e7 68 fb 3d d8 e7 a4 be
       -0.18326072 -0.14352168 0.12275868 -0.32208133
000200 05 6e de 3e 54 11 19 be c6 9b 1d 3f 7c 7d 16 3e
       0.43443313 -0.14948016 0.61565816 0.14696306
000210 ae 01 0f 3c 41 cf de bd d4 72 0b 3e b9 bd 63 be
       0.008728428 -0.10879374 0.13618022 -0.22240342
000220 ca 6a 35 bf 27 8e 7a bc 03 bf 26 3d e7 84 ff 3d
       -0.7086607 -0.015292681 0.040709507 0.12476521
000230 39 bb 26 bc 59 30 f1 3d 04 c3 0f bf 19 af d3 3d
       -0.010176473 0.117768 -0.56156945 0.103361316
000240 02 5d 61 bf 28 d9 0b bc 82 f1 8e 3c b9 6c 41 be
       -0.88032544 -0.008535661 0.017449144 -0.1888913
000250 b5 0a b7 3e fb 50 0b 3e a6 44 02 3d a5 f6 66 bd
       0.35750356 0.1360511 0.03180375 -0.056387562
000260 16 c7 a6 3e d6 97 ab bd 0a 60 e8 3d c8 5a 30 3e
       0.32573766 -0.0837857 0.11346443 0.1722213
000270 2a 15 2b 3f 1f eb 55 be d0 8f 0a bf 34 2a ad 3e
       0.6682917 -0.20890473 -0.5412569 0.3382126
000280 5e 43 c4 3c 87 a6 72 be 0e 93 e3 be a9 02 6f bd
       0.023957904 -0.23696338 -0.4444813 -0.058352146
000290 0f 1a 19 3e eb f9 ed bd 4e 9c 48 3c a8 32 ad bd
       0.14951347 -0.11619934 0.012244297 -0.084569275
0002a0 34 e2 80 3f b3 a1 72 bb ce 26 aa be 0f 66 37 3e
       1.0069032 -0.003702265 -0.3323273 0.17910026
0002b0 fd 01 b1 bd b0 e3 10 be 97 51 0f 3f 8f fa 40 bb
       -0.08642957 -0.14149356 0.5598387 -0.002944622
0002c0 63 76 08 3f 34 30 bb be 70 e8 d1 3d 5c a2 c6 bc
       0.53305644 -0.36560214 0.10249412 -0.02424734
0002d0 28 a6 64 3e 06 1e 43 be 7b 2d bb bc 9d f2 66 3e
       0.22329009 -0.19054422 -0.022848835 0.22553487
0002e0 81 ba ee 3d 94 22 60 bd 61 0e 0d be 57 e9 fa be
       0.116566665 -0.054720476 -0.13775016 -0.4900615
0002f0 07 04 10 bf 80 52 41 3e dc 2a 66 3e 61 24 a9 3d
       -0.56256145 0.18879128 0.22477287 0.08258892
000300 31 8b 86 be ff 20 b8 3e 18 13 fd be fc 01 c5 bd
       -0.2627807 0.35962674 -0.4942863 -0.09619519
000310 f2 a1 86 3d 8b 38 44 3e a0 36 0e 3e 05 b0 57 3e
       0.06573857 0.19162194 0.13888025 0.2106324
000320 ab 3d 26 be d6 44 bd ba 1a 17 ae bd 98 f4 aa be
       -0.16234462 -0.001444007 -0.085005 -0.33389735
000330 83 48 8c bd 73 b6 58 be 69 fd a0 3e db 63 24 3e
       -0.06849768 -0.21163349 0.31443337 0.16053717
000340 0e ab bc 3e 63 2d 2d bd ce 62 41 bf 5c b6 83 3e
       0.36849254 -0.042279612 -0.7554139 0.25725067
000350 9f 7d a6 be 9f 91 b5 3c d8 1a 93 3c f5 32 06 be
       -0.32517716 0.022164164 0.017957136 -0.13105376
000360 ab ad 90 be 0d 5d 14 3e ba c3 ff bd 89 87 17 3f
       -0.28257498 0.14488621 -0.12488504 0.59191185
000370 ba fa 41 be 20 c5 a2 bd cc 24 c8 3e e6 86 c1 3d
       -0.18943301 -0.07947755 0.39090574 0.09449558
000380 e4 69 33 be 5b 7a 7f bd e4 73 74 be 15 e3 fc 3b
       -0.17520863 -0.062372547 -0.23872334 0.0077175
000390 e0 79 6c bc fe 2f 90 3c 2f 44 38 3c 59 4b 66 be
       -0.014433354 0.01760101 0.011246725 -0.2248968
0003a0 6f 9d d6 3e 9f 42 5f 3d a9 c5 50 be 3c 41 e6 3d
       0.41916987 0.054506894 -0.20387901 0.11242911
0003b0 78 74 51 be 3a b6 35 3e 7a 2c 28 3e 54 1d be be
       -0.20454586 0.17745295 0.16423216 -0.3713175
0003c0 0a 57 c4 3e ab 07 57 be c5 91 85 3e 5e 3e 4d bd
       0.38347656 -0.20999019 0.26087776 -0.050108306
0003d0 63 36 af 3d b2 90 05 be d8 ed 77 bd 52 18 2e bd
       0.08555295 -0.13043478 -0.06052956 -0.042503662
0003e0 12 e1 81 bd 50 6f f7 bc 3d 58 07 3d 81 4f f5 be
       -0.06341757 -0.030204445 0.033043135 -0.4791222
0003f0 c4 ee 83 be 11 07 e7 3d e8 44 df 3d b4 02 cd bd
       -0.257681 0.11280645 0.10901815 -0.10010281

residual_blocks.0.output_conv.bias f4 [32]
000000 29 29 4f bd ba 6b c7 3c 3c 1b 3d ba ab a0 2b bd
       -0.050576363 0.02434336 -0.0007213836 -0.04190127
000010 aa 9a 91 3d 76 4f 1a be 25 a6 83 3d 86 17 ba 3d
       0.07109578 -0.15069374 0.06428174 0.09086518
000020 bb 50 9a bc 72 78 12 3e 54 d5 bd bd 41 98 5c bd
       -0.018837323 0.14303759 -0.09269205 -0.05385614
000030 fa 32 b0 3d a4 32 43 3e c1 ee fd bd 3c f0 90 bd
       0.08603473 0.19062287 -0.12399054 -0.07077071
000040 8e b4 f3 bc 1d ed b2 bd 04 36 47 bd 5a 0f e8 3b
       -0.029749181 -0.08736632 -0.048635498 0.007081908
000050 0c bc a6 3d cb 3b 1e 3e 09 d1 7b 3d eb de db ba
       0.08141336 0.15452497 0.06147865 -0.0016774809
000060 21 37 0b bd 36 7a fb bc 6d 24 f0 3d 7b b2 55 bd
       -0.033988122 -0.030697923 0.11725698 -0.052172165
000070 12 e3 d7 3d ef 6e 52 be 82 8e 33 3b ab cd 37 bd
       0.10541357 -0.2055013 0.0027398174 -0.044873875

residual_blocks.0.skip_conv.weight f4 [32, 32, 1]
000000 72 73 59 3e 7c 35 85 3e c0 2a 27 3e 43 64 42 be
       0.21235445 0.26017368 0.16324902 -0.1898356
000010 0c 85 8f bd 4f 9a 79 be cb 00 a0 be 47 03 8e bc
       -0.070077986 -0.2437527 -0.31250605 -0.017335547
000020 6e f6 29 bd 4c 34 99 3e 01 1f 51 3e 26 42 05 be
       -0.04149478 0.29922712 0.20421983 -0.13013515
000030 e2 24 9e 3e 63 aa 2e bd 36 43 05 be 6c 70 69 bb
       0.30887514 -0.042642962 -0.1301392 -0.0035619987
000040 0e 35 34 3e 24 0a ab 3e ae ad ba 3d 06 43 72 3e
       0.17598364 0.33406174 0.09115158 0.2365838
000050 fd aa b4 be 43 9c 20 be 86 90 06 be e1 99 04 3f
       -0.35286704 -0.15684609 -0.13141069 0.517973
000060 9f ee 2f 3a 8b 49 97 be 34 15 a3 3d 1b 19 5c be
       0.00067112775 -0.29548296 0.079630286 -0.21493952
000070 64 12 b2 be 3b 20 3e 3d 1c f0 22 3d e0 73 47 be
       -0.34779656 0.046417456 0.039779767 -0.19477797
000080 62 be 54 3e d8 dd e0 3c 27 95 2f 3e 8b d2 d7 bd
       0.2077575 0.027449533 0.17146741 -0.10538205
000090 9b f7 a9 3d 47 bd 5b 3e 37 09 e3 be d7 67 5b 3e
       0.0829918 0.21458922 -0.44342968 0.2142633
0000a0 64 05 f3 3d f7 94 24 be e5 d4 d7 3e 8d 30 66 3e
       0.118662626 -0.1607245 0.42154613 0.22479458
0000b0 e6 39 4c 3d 85 19 16 3d 77 b4 87 3c c1 7c 79 3e
       0.049859904 0.03664543 0.016565545 0.24363996
0000c0 37 f8 c6 3e 8d 24 e2 bb b9 23 bd 3e b6 0d 6f 3e
       0.38861248 -0.00690133 0.36941317 0.23345074
0000d0 48 1f a9 bd 7a 90 91 bd 7d cc b5 3d f5 6d a6 3e
       -0.082579195 -0.07107635 0.08876894 0.32505766
0000e0 c3 8d dd be 09 11 df be 47 81 fe bd d6 6f 60 be
       -0.43272218 -0.43567684 -0.124270014 -0.21917662
0000f0 d5 ca 8a be f7 aa 86 be cd 57 a9 be b7 de 0b bf
       -0.27107874 -0.2630231 -0.330748 -0.5463671
000100 b0 d5 37 bf 74 cc 89 3e 7a ae 7b 3b e4 c5 df be
       -0.71810436 0.26913798 0.0038403557 -0.43705666
000110 88 64 6a be 85 d4 6a be 1f 5e d9 be 56 ec 62 be
       -0.22889912 -0.22932632 -0.4245462 -0.22160468
000120 4e 7c da be e8 01 98 be 07 0e d4 bc 70 2f 9b 3e
       -0.42672962 -0.29688954 -0.025885595 0.3030963
000130 b3 7c 99 3e 39 29 92 3e 52 f0 3e be f1 a3 29 bf
       0.2997795 0.28547075 -0.18646362 -0.6626578
000140 99 f6 7b 3e b4 07 57 3d 33 29 16 3e 62 76 97 3e
       0.24605788 0.05249758 0.14664154 0.29582506
000150 f9 89 27 bf ad e0 77 be d6 04 ab 3e 28 2d 99 3e
       -0.65444905 -0.24206801 0.33402127 0.29917264
000160 4e cf 0d bf 10 9d 9c be 99 76 93 3e db 33 6e be
       -0.55394447 -0.3058858 0.2880142 -0.23261969
000170 af 5a da 3c 4c 26 d0 be 56 3e a2 be 62 1a 9a 3b
       0.02665457 -0.40654218 -0.31688184 0.004702852
000180 e3 63 65 3e 9d b4 08 bf 04 2f 30 bd 32 ba e0 3e
       0.22401385 -0.53400594 -0.043013588 0.43892056
000190 c5 d7 8e 3e 28 c6 06 3f 97 94 f1 3e b8 2c 57 3e
       0.27898994 0.5264611 0.47183678 0.21013153
0001a0 c1 31 e6 bd a2 0e bf be 7f 22 12 3e df 22 cd 3e
       -0.112399586 -0.3731585 0.14270972 0.40065667
0001b0 30 36 ec be 75 ef 72 be 9c d0 84 bd 7a f6 af 3e
       -0.46135092 -0.23724158 -0.064851016 0.34367734
0001c0 21 90 b3 be 69 72 2e be 61 36 d3 3e 8a c6 da be
       -0.350709 -0.17035832 0.41252425 -0.42729598
0001d0 a3 f5 02 3f 9a ff ba 3e 3f d5 09 3e b0 cc 1a bf
       0.5115606 0.36523134 0.13460253 -0.6046858
0001e0 dc 37 70 3e 93 0b ec 3e 69 df af be 09 af 15 3e
       0.23458809 0.4610258 -0.34350136 0.14617552
0001f0 35 37 23 3e da 0c 80 be 75 04 e2 3d 41 1c 81 be
       0.15939029 -0.25009805 0.11036006 -0.2521687
000200 c3 5c 05 00 91 60 05 00 6a 57 05 80 65 63 05 00
       4.92454e-40 4.93819e-40 -4.90536e-40 4.94834e-40
000210 f7 5d 05 00 06 58 05 80 cd 61 05 80 e5 59 06 00
       4.92886e-40 -4.90754e-40 -4.94262e-40 5.83261e-40
000220 08 5e 05 00 3e 5f 05 00 c4 5a 05 80 f8 5f 05 80
       4.9291e-40 4.93344e-40 -4.91738e-40 -4.93605e-40
000230 99 57 05 00 21 5b 05 80 ce 5d 05 00 02 5b 05 00
       4.90602e-40 -4.91868e-40 4.92828e-40 4.91825e-40
000240 4e 60 05 80 23 5e 05 80 b4 58 05 80 f4 62 05 00
       -4.93725e-40 -4.92947e-40 -4.90998e-40 4.94675e-40
000250 28 64 05 00 9f 5f 05 80 f6 5d 05 80 08 5c 05 00
       4.95107e-40 -4.9348e-40 -4.92884e-40 4.92192e-40
000260 c7 57 05 00 7a 5f 05 80 ed 5e 05 00 88 64 05 80
       4.90666e-40 -4.93428e-40 4.9323e-40 -4.95241e-40
000270 28 5f 05 00 2b 64 05 00 9f 5b 05 00 c3 5f 05 00
       4.93313e-40 4.95111e-40 4.92045e-40 4.9353e-40
000280 4a c8 f6 3d 09 8a c0 3c 93 10 09 be 5e 44 24 bd
       0.12049921 0.02350332 -0.13385229 -0.040104263
000290 9c 1c 0a be ae 92 e9 bd 16 c8 7a 3d d4 f7 a0 bd
       -0.13487476 -0.1140493 0.061225973 -0.078597695
0002a0 aa bc c3 3c e6 20 0f 3e ce 89 34 be e8 32 15 bc
       0.023893673 0.13977394 -0.17630693 -0.009106375
0002b0 3e 00 a9 3a c0 93 b0 3d 21 ae da 3d e3 ca cd bd
       0.0012893749 0.08621931 0.10677744 -0.10048463
0002c0 ed 9e 9b bd 70 9a 0b bd d3 7a 2f be 46 08 b4 bc
       -0.07598672 -0.03408283 -0.17136697 -0.021976601
0002d0 27 a9 fa bb 5c 35 a0 bc f2 d0 9e bc f8 23 f5 bc
       -0.007649559 -0.019556694 -0.019386742 -0.029924378
0002e0 b3 c2 a7 3d d4 2c bc 3d fd 40 65 3d d1 01 7a 3d
       0.08191433 0.09188238 0.05597018 0.06103689
0002f0 e0 75 f5 3d 71 70 b7 3d 8b 48 14 bd 3f 45 58 3e
       0.119853735 0.08956993 -0.036201995 0.21120165
000300 fc cd 00 be 26 0b 7d 3e 11 d4 37 3c 72 41 90 be
       -0.12578577 0.24711284 0.011219994 -0.2817493
000310 cc 7b e7 bd e8 db 4a be 27 86 df be 56 53 d6 3d
       -0.11302909 -0.1981045 -0.43657038 0.10465114
000320 8d 91 64 3e e6 1d fd 3e 4a 2f e2 3c e5 03 b2 be
       0.22321148 0.49436873 0.02761044 -0.34768596
000330 30 7e 92 3e 09 f0 56 3d 34 73 cc 3d 69 df a1 3d
       0.28611898 0.05247501 0.09982911 0.0790394
000340 f8 88 a3 3e 90 f6 19 3b eb e4 44 3e 6c 0b a8 3e
       0.31940436 0.002349291 0.1922795 0.32821214
000350 42 c5 a3 bd 02 92 62 be ad 29 ad be a3 ef ba 3e
       -0.07996608 -0.2212601 -0.3382086 0.36510953
000360 6a 85 96 be 05 bb 8e be 65 27 22 3d 43 dd bf be
       -0.29398662 -0.2787706 0.03958835 -0.37473497
000370 5d 5f a0 be 7c 81 e5 3e 3b 74 b8 3c a9 e5 49 be
       -0.31322756 0.4482535 0.02251636 -0.19716515
000380 ce 1d 57 bf eb 04 b2 3c 48 0a 8d 3d 17 ee 7d be
       -0.84029853 0.02173086 0.068867266 -0.24797855
000390 87 fa 6b be b9 77 69 3d 84 08 dd bb fe f8 44 be
       -0.23044787 0.056998942 -0.0067454 -0.19235608
0003a0 82 ef 2e bf db 0f c7 be 50 f4 06 be c4 7b c6 3e
       -0.6833421 -0.38879284 -0.13179135 0.387663
0003b0 ba cd df 3c 91 52 f8 3e f6 99 85 be 1b 31 e7 be
       0.027319778 0.48500493 -0.26094025 -0.45154652
0003c0 97 d5 73 bb f5 9f ba bd c2 95 3c be fa cd 3d 3b
       -0.0037206167 -0.09112541 -0.18416503 0.0028961883
0003d0 91 1a f9 be 7e 8e 6e bd 5d 95 d8 3e 64 75 47 be
       -0.4865308 -0.05824136 0.42301455 -0.19478375
0003e0 c9 ee c0 be a4 50 7e 3d c6 03 da 3d 96 55 c9 bd
       -0.3768218 0.062088624 0.10645251 -0.09830777
0003f0 db 6e da 3e 6d 0d f4 be 49 af a4 be e6 4a 3a 3e
       0.426627 -0.47666493 -0.32164982 0.18192634

residual_blocks.0.skip_conv.bias f4 [32]
000000 3a 5c 50 3d d9 79 22 3e 6e 70 05 bd c3 9e 56 be
       0.050869204 0.15866794 -0.032577924 -0.20959
000010 91 c2 30 a5 de a3 22 be e6 4d 33 3e f3 38 ce bd
       -1.5331488e-16 -0.15882823 0.17510185 -0.10069456
000020 b9 a5 7c 3c e6 5d ea bd 48 0e 7b 3d 0b 30 ef 3d
       0.015420371 -0.11443691 0.061292917 0.11679085
000030 02 14 c8 bd 0a f6 cc bd 36 31 5e be e0 c0 09 be
       -0.09769441 -0.10007866 -0.2169846 -0.13452482
000040 36 57 2c be 24 c0 79 be 62 6b 0b 3e e0 10 a5 bc
       -0.16830143 -0.24389702 0.13615182 -0.020149648
000050 7b 36 86 bd cd e7 34 3e 84 4e de 3c 94 45 81 ba
       -0.0655336 0.1766655 0.027137049 -0.0009862655
000060 9c 7e 95 3d 0d 8f fd 3d d6 e6 2c be cc 5b 04 3e
       0.072995394 0.123808004 -0.16884932 0.12925643
000070 0b 74 8e 3e 76 92 31 bc 62 95 7c 3d 33 7a 00 bc
       0.2782291 -0.010838142 0.0616659 -0.007841635

residual_blocks.1.dilated_conv.conv.weight f4 [64, 32, 2]
000000 17 ff 02 be f3 34 9e bc 5a 61 43 3d 70 76 3f bd
       -0.12792622 -0.019312358 0.047700264 -0.04674381
000010 38 45 9c bd 56 77 40 3e 73 b0 83 3e 8c 10 95 bd
       -0.0763039 0.18795523 0.25720558 -0.07278547
000020 8a 17 98 bd 9e 9c a5 be 7d 84 1b 3e 2f 01 4f 3e
       -0.07426365 -0.32346052 0.15187259 0.20215295
000030 d2 42 49 bd 3c 06 36 be fd 0e b2 3d 4e 8c 97 3d
       -0.04913599 -0.17775816 0.08694265 0.07399808
000040 6f 7a ab bd b8 e4 22 3e 22 8e 04 3e 17 75 2b bc
       -0.08372962 0.15907562 0.12944844 -0.010464928
000050 59 a5 a5 3d c2 82 5c be 2b 13 f4 bd 67 09 7f 3d
       0.08088178 -0.21534255 -0.119177185 0.062264826
000060 a9 b3 79 3e 8f d3 57 bd 10 d7 51 3e 99 9e 0d be
       0.24384941 -0.052691992 0.20492196 -0.13830031
000070 f3 af 30 be 5e f9 82 3e ff 03 7f bd e0 d7 05 bc
       -0.1725462 0.25580877 -0.06225967 -0.008169144
000080 c6 45 d2 3c d3 a0 3c 3e 4e 0c f1 3d 6c b7 86 bd
       0.025668036 0.18420725 0.11769925 -0.06577954
000090 bb bb 03 be 23 df 4e be ed b1 ad 3a 93 39 96 3d
       -0.12864582 -0.20202307 0.0013251879 0.073352
0000a0 4e 29 f0 bd 4b 27 62 3e 5c 34 05 3e c4 4c 65 be
       -0.11726628 0.22085302 0.13008255 -0.22392565
0000b0 a6 a4 24 3b 27 2a 45 bd f7 82 8e 3c c3 b0 83 bc
       0.0025122552 -0.048135903 0.017396433 -0.016075497
0000c0 5f fc ae bc 70 71 65 3d 16 4d e8 bd 76 22 b0 3e
       -0.021360574 0.056016386 -0.11342828 0.34401292
0000d0 60 77 8d 3e 4b b5 ea bd ea 46 cf 3d d7 cb 49 be
       0.27630138 -0.1146036 0.10120948 -0.19706665
0000e0 51 a9 0c 3e ff f3 58 3e 64 7f f6 bd 05 88 61 3d
       0.13736464 0.21186827 -0.120360166 0.05506136
0000f0 db 97 b1 bc 4e 45 c2 3d 11 7d 3d 3c e3 47 0d 3a
       -0.021678856 0.09485875 0.011565463 0.0005389435
000100 36 07 a3 bc bf 3c 25 bd 77 14 d9 bd a5 bd 0c bd
       -0.0199009 -0.040341135 -0.105996065 -0.034360547
000110 e4 95 18 3e 91 88 3c be 96 ce 86 bc a3 5d b7 3d
       0.14900929 -0.18411471 -0.01645593 0.08953407
000120 51 d9 d7 3d ef 57 77 be 6d fe 93 be c8 e7 b9 3e
       0.10539497 -0.24154638 -0.2890505 0.36309648
000130 19 a7 58 bd 21 d8 33 3e d3 ba b7 3a 1b cd c7 3d
       -0.05289373 0.17562915 0.001401747 0.09755918
000140 89 ca 06 3d b2 07 fc bd e7 08 24 3c 24 45 ba 3b
       0.032907996 -0.12306155 0.010011888 0.0056845117
000150 f8 e1 37 3e b5 59 ce bd d2 b4 ec bd 9e 20 d9 3c
       0.17957294 -0.10075704 -0.11557926 0.02650481
000160 44 ad e1 3d ac 04 4c bd 75 51 ad 3c cc ef 3d bd
       0.11019376 -0.049809143 0.021157006 -0.046371266
000170 c8 98 eb bd c5 cb 4a bd ec e3 aa bd a0 4d f9 3d
       -0.1150375 -0.049510736 -0.08344254 0.12173009
000180 e6 6d ac be a6 f3 28 3e 1c f9 8c be 71 43 40 bc
       -0.33677596 0.16499195 -0.27533805 -0.011734829
000190 7c 53 a1 3e 5a 4b 82 be 3a 98 03 be 5f b3 f1 3d
       0.31509006 -0.25448114 -0.12851039 0.118017904
0001a0 7b 44 82 3e b8 b7 19 be 61 f4 d9 3d b3 fc 37 3c
       0.2544287 -0.1501149 0.10642315 0.011229682
0001b0 8f 09 e0 bc 79 80 ad bd 8a 01 54 be d0 6b 42 3e
       -0.027348308 -0.0847177 -0.20703712 0.1898644
0001c0 3d e5 57 3d 12 8a c5 bd 73 fe be 3d 87 78 62 be
       0.052708853 -0.096454754 0.09325876 -0.2211629
0001d0 a8 06 92 3d 48 34 06 3e fb b1 ac bc fb f6 c3 3e
       0.07130176 0.13105881 -0.021080961 0.3827437
0001e0 d4 ba 6d 3c 2e b4 fe bd d8 4c cb bd b8 89 15 be
       0.014509875 -0.1243671 -0.09926766 -0.14603317
0001f0 3d 09 88 3d ed bd f4 bd ec 7a d1 bd 11 cf 79 3e
       0.06642387 -0.11950288 -0.102285236 0.24395396
000200 f5 ea 0e be 69 6d 2c bd ec 71 d1 bd ed 9b 02 be
       -0.13956816 -0.04209653 -0.10226807 -0.12754793
000210 51 17 ad bc 76 4d d5 bc f6 e6 5f 3e 45 e0 8b 3d
       -0.021129282 -0.026037913 0.21865448 0.068298854
000220 77 37 ab bd d8 b7 9a be 61 20 11 3e 4a 65 83 3e
       -0.083601885 -0.30218387 0.14172508 0.25663215
000230 9c a5 76 3d d1 3e ab 3d a2 ae 11 3c e5 88 07 3d
       0.06021653 0.08361591 0.008891733 0.033089537
000240 6b b4 e1 bd b9 6b 4b bd 78 d9 e3 3c 1f 68 05 be
       -0.1102074 -0.04966328 0.027813658 -0.13028
000250 e3 55 01 3e 51 e3 d7 bd 67 93 91 bc 32 91 6f 3d
       0.1263042 -0.10541404 -0.017770482 0.05848808
000260 84 5e 03 3e bb 3e 92 3d 1b c3 e2 3d 12 b8 84 3c
       0.12829024 0.07140871 0.1107237 0.016201053
000270 d9 ad 6e bc d9 30 ff 3d 9b 9c 95 3c a3 fd 5d 3d
       -0.014567816 0.12460489 0.018263152 0.054196965
000280 f1 54 74 3c 4f 58 b8 3d 6f c6 dd bc c1 15 02 be
       0.01491283 0.090012185 -0.02707216 -0.12703611
000290 22 ea da 3d 5c ab 6a be 9e c6 0c 3d 88 c7 85 3d
       0.106891885 -0.22916931 0.034369104 0.06532198
0002a0 35 e6 fa bc 19 7f e3 3b af 2c 09 be 5e 21 92 be
       -0.03062735 0.0069426415 -0.13395952 -0.28541082
0002b0 c8 d9 25 be 80 d0 97 bc df 21 c3 bd d7 eb 7f 3d
       -0.16196358 -0.018532038 -0.09527945 0.062480774
0002c0 5c 57 d8 3b 28 62 81 3e 1d 64 ed bd e5 cd 30 3e
       0.006602211 0.252702 -0.11591361 0.17266043
0002d0 fa 92 32 3e 60 e5 e9 3c 41 00 a9 bb 11 2d ab 3d
       0.1743888 0.028551757 -0.005157501 0.08358205
0002e0 5d af 22 3e ee b0 2f 3e 55 23 bb bb 75 60 ee 3d
       0.15887208 0.17157337 -0.005710999 0.116394915
0002f0 15 45 ef bd bd e2 bb 3d d1 03 e5 3c e1 1d 1b 3e
       -0.11683098 0.09174106 0.027955921 0.15148117
000300 9c 42 ad bc 73 95 d8 3d b9 33 a3 bd 8b ef b6 be
       -0.021149926 0.1057538 -0.0796885 -0.35729632
000310 85 c2 86 bd 85 07 d2 3c af aa 01 3d af 18 75 bd
       -0.065800704 0.025638351 0.031656917 -0.059837993
000320 8b c6 86 3d 46 a9 0e 3e f0 c1 e6 3d 0c 5a 0b 3e
       0.06580838 0.1393176 0.112674594 0.13608569
000330 b6 3c 0e be f3 6a 17 be 5d 56 cc 3b 9d 49 63 be
       -0.13890347 -0.14786892 0.0062358812 -0.2219605
000340 37 6e 05 3d 90 a6 69 3d f7 e5 16 be 86 29 d0 bd
       0.032575812 0.057043612 -0.14736162 -0.1016417
000350 81 ea ad bd 22 98 da bd 10 4d e4 3c fe 41 8f 3d
       -0.08491994 -0.10673548 0.027868778 0.06995009
000360 b9 15 5f 3d a7 25 01 be 18 c7 bb bd 01 56 6a be
       0.054464076 -0.1261202 -0.091688335 -0.2288437
000370 6e 4d 5d 3b 3e 68 a5 3d d0 f5 08 3e f1 17 17 3d
       0.0033768076 0.08076523 0.1337502 0.036888067
000380 83 1d 74 3e 28 ef 2a bd de c2 0f 3e 13 ec 21 bd
       0.23839383 -0.041731983 0.1403918 -0.03953178
000390 69 43 a2 3c 11 11 2a be b4 bc 00 3d 70 66 84 bd
       0.019807534 -0.16608073 0.03142996 -0.06464851
0003a0 76 4a a9 bd 05 32 27 bb da 44 7e bd 78 25 b7 3d
       -0.082661554 -0.0025511992 -0.06207738 0.089426935
0003b0 97 e3 c6 3d 6e 70 1a bc bb 75 a7 3d fb 67 1f 3e
       0.09711378 -0.009426219 0.08176752 0.15567009
0003c0 9c c3 9d bd e5 9c 6b 3c 28 90 14 3d d8 89 22 3d
       -0.07703325 0.014380668 0.03627029 0.03968224
0003d0 03 da ef 39 d8 a1 81 3e 9d b2 54 3e 3e 46 c3 3e
       0.00045748064 0.2531879 0.2077126 0.38139528
0003e0 e0 2f 1d be 58 32 da be c0 eb 22 3e 22 62 04 3e
       -0.15350294 -0.42616534 0.15910244 0.1292806
0003f0 0d f3 8f bd 92 b0 db 3d 35 6a 06 3d ad 22 46 be
       -0.0702878 0.107270375 0.03281613 -0.19349165

residual_blocks.1.dilated_conv.conv.bias f4 [64]
000000 b7 c8 18 bd 7d fe b4 bc 92 6b e3 bc 67 5e 86 bd
       -0.03730079 -0.022094006 -0.027761254 -0.065609746
000010 bb 71 a8 bd a8 4e f9 bd 53 9f d1 3d 70 82 34 3d
       -0.08224817 -0.121732056 0.10235467 0.044069707
000020 15 e7 ae 3d 65 80 eb 3d 25 45 ba 3d 2d ff 85 bb
       0.08540169 0.11499099 0.090952195 -0.004089257
000030 17 15 da 3d df cb 80 bc 70 cb 8e 3e bd 1d 46 3e
       0.10648554 -0.015722213 0.27889585 0.19347282
000040 58 52 d2 bd 6c 83 48 bc 16 12 1e 3e 42 5b c2 3d
       -0.10269612 -0.012238365 0.15436587 0.09490062
000050 15 c6 11 be a2 9c e8 3d 01 ce 8d bd 49 02 12 3e
       -0.14235719 0.11358 -0.06924058 0.14258684
000060 36 ad 66 be 3f 91 fd 3c 07 cb 6b 3c 1d 88 e7 bd
       -0.22527012 0.030953048 0.014391667 -0.113052584
000070 0c 60 7b bd 29 dc 6a 3d df 02 68 3e 52 af a6 3d
       -0.061370894 0.057338867 0.22657345 0.081389084
000080 dc ef 6b be 07 e8 88 be 7d 27 17 bd bf df d6 bd
       -0.23040718 -0.26739523 -0.036902893 -0.10491895
000090 db 4b de bd 29 e1 26 bc da 9f a3 be 4c 72 4b be
       -0.10854312 -0.010185518 -0.31957895 -0.1986782
0000a0 f1 fe 12 bc 22 7c c2 3d d6 63 19 3c 68 48 07 be
       -0.008971916 0.09496333 0.009362182 -0.13211215
0000b0 9d c8 99 bd 57 dc 54 bd 48 88 11 3e 67 f9 b3 bd
       -0.07508967 -0.051967945 0.14212143 -0.08787804
0000c0 fe 07 8f bd ab bb 2e 3e 62 17 8a bd 35 61 c2 bd
       -0.06983946 0.17063777 -0.06742741 -0.09491197
0000d0 51 bb 23 be 2d 8b 2a be ad 6a 5f bd e8 e9 e0 bd
       -0.15989424 -0.16654654 -0.054545093 -0.10982114
0000e0 29 1d 8e 3e 87 05 3c be 16 13 c5 3c 0e 0e f4 be
       0.27756622 -0.18361484 0.024056952 -0.47666973
0000f0 35 88 6c bd 71 ea 17 bd a2 6b 81 be ea c1 0a be
       -0.057747085 -0.037088815 -0.2527743 -0.13550535
